backend/models/base_model_1_BTCUSDT_1m.pth (torch, 868888 bytes, 9 tensors)

lstm.weight_ih_l0 f4 [512, 34]
00000000: 9e41 853e dbd5 123e b388 3e3e 3245 8e3d
00000010: 61ca 443e fed4 2c3d 80dd d43d 2550 3e3c
00000020: 22cf b3bc c025 dd3c c648 db3d e8d2 453d
00000030: 9ac6 c73d 004d 213e ed80 553e e3f9 913d
00000040: 81bb 4d3e 62f6 563d a42e 003e 36fa dd3d
00000050: c595 163d 1663 103e daf9 c13d d5ca b5bd
00000060: d28f 8ebd b635 6ebd c836 893d 373d 66bc
00000070: b9d6 de3d 40c4 e23d d8ea 493d d7e3 973d
00000080: a801 c03d fabf 4d3e 3e0f b73d 9697 5cbd
00000090: 1903 783d c80b 10bb 74b1 8ebd 3e07 8dbd
000000a0: 0d5f 553c 08b0 923d a812 3e3d ae22 cb3c
000000b0: e5da 3abd 1048 c6bc 883a 3dbc 55a1 293d
000000c0: 7fae 063d 8bc9 2abc 1a0c 8f3d 969e 9d3c
000000d0: ffc0 8bbc 45b7 d2bd 1fb3 15bd ab6c 863c
000000e0: cb6b abbd 44ec 703d dfc7 6c3d eea9 d0bd
000000f0: 6d82 163d 303d bf3d 8b11 2e3d 3037 1c3d
00000100: e0a7 49bd f514 c23c 9eb1 6bbd d94b 24bd
00000110: 1bc4 133d 6ec8 553d e709 20bd 58bc 913d
00000120: 1396 7a3d 5ea3 71bd cc01 2cbc f0fc c13c
00000130: f8a0 853c 0159 e8bc 04a3 9abd bca3 92bd
00000140: 938d 10bd 1d46 0fbd 5b67 743d 108b d03c
00000150: deef 24bc f002 5cbd e27d 683a 1be0 fb3d
00000160: 4984 49be df41 fcbd 2034 f5bd dc2e f8bd
00000170: f043 6abd ea0b 55be 0809 4bbe 2ab6 bb3d
00000180: 763c e93c b982 27bd ebb6 8e3d 8659 ce3d
00000190: ecaa e43c 6358 b93c d7d6 aa3d 2bd5 69bc
000001a0: d026 913d e10f e43c 5afa a63c 5a7c 05bc
000001b0: 87da 8f3c 8822 9f3d fd7f a93d 3ca1 acbc
000001c0: 0a6e 6bbd 1604 f73b 8230 67bb 0ff3 ce3c
000001d0: f12b be3d e0ae 90bc 3ee0 93bd ecd3 a0bc
000001e0: 837a 693d ec95 a33c 616d bbbd 2081 1ebe
000001f0: eab2 afbd 4380 c3bd 919b 03bd fb7a 10be
00000200: 59ed 6bbd bbff 8ebc a969 713d 170b 983c
00000210: 955b 1dbd cbe1 97bd 155c 1a3d 7ebd b93d
00000220: bf57 dc3c 1713 f2bc e997 b93a 6338 4c3b
00000230: 8561 15bd cde0 d5bc 7936 abba 726f 493c
00000240: e6b2 56bb fd61 7abd a641 a93d bd2d b33d
00000250: b1b5 c33c 79c4 8d3d 3e5a 80bd 30b3 103d
00000260: 4f6b f43c 0717 6f3d 1c31 a33d c595 633c
00000270: dd85 a6bc 96ed acbc 70dd 81bd 9420 9cbd
00000280: 72da 22bd bde3 acbd 3dc7 cdbd f6be 71bd
00000290: 2724 38bb b5cc ca3d e2ea 87bb d6cf a73d
000002a0: 49e7 5d3d 4376 9abc 7aa6 2d3e 4b24 1abd
000002b0: 0e9e 83bd 6b6e e23c d0c5 0e3d 83ca 89bb
000002c0: ba80 11bd 011b ecbc e3d5 cfbc d622 823c
000002d0: ce8f babd 2c38 213d 430a babd 651b 753d
000002e0: 7644 38bd d416 323d 55d7 50bd 7839 7c3c
000002f0: 56c0 e4bb fc44 b33c d1b6 c6ba 4fad dcbd
00000300: 019a 8cbd cae2 8cbc 8e7d a1bc ce55 debd
00000310: 6315 0bbd 46c8 333b 115c 313d 6916 8abd
00000320: 8f51 913c bcde 94bd abcc babd 1d46 de3c
00000330: aa1b 483d 3e1a c63c cb42 433d 0c3c 8a3d
00000340: 53ab 86bc 3154 0ebd 0ffe b7bc 8e99 97bd
00000350: 08b9 23bc c519 8ebc 8857 623d 575c 493d
00000360: 6ced 953d 0b50 1e3e e0c1 0d3e 396d 963c
00000370: bf56 903d 8558 113e 3c7d a43c 15bf f93d
00000380: 1dc4 143d f34a 1dbd be4e e53c 8470 bcbd
00000390: 4115 6abc 45b4 9c3d f253 40bd c8ab 4bbd
000003a0: 3bd2 ab3d f01a 94bb 307e 613d d529 e83c
000003b0: 0a97 e73c db5c c93d 0e1c f43d 2c9c abbc
000003c0: 500f b2bc ef63 e33c 3b26 133d 263e 353d
000003d0: 9577 af3c 81db 3d3d 3fa9 d1bb 4282 abbd
000003e0: d442 3ebd 5d3c 083d 286f 323d 2c47 52bd
000003f0: 7a14 973d e9f3 d53d 3736 9d3b 9642 22bd
0.26026624 0.14339392 0.18606834 0.06946792 0.19217826 0.042195313 0.1039381 0.011615788
-0.021949355 0.02699554 0.1070724 0.04829684 0.09754677 0.1575203 0.20849963 0.0712774
0.20091058 0.052481063 0.12517792 0.108387396 0.036763925 0.14100298 0.094714835 -0.08876578
-0.06961025 -0.05815669 0.06699902 -0.014052681 0.10880799 0.11072588 0.04929623 0.07416504
0.09375316 0.20092764 0.08938454 -0.0538555 0.06054983 -0.0021979678 -0.0696744 -0.06886147
0.01302315 0.071624815 0.04640451 0.02479681 -0.04561891 -0.024204284 -0.0115495995 0.041413624
0.032881256 -0.010424028 0.0698473 0.019240659 -0.017059801 -0.10288862 -0.036547776 0.016409239
-0.08370169 0.05881907 0.0578078 -0.101886615 0.036745477 0.093378425 0.0424972 0.03813857
-0.049232364 0.023691634 -0.057542436 -0.040111396 0.036075693 0.052193098 -0.039071944 0.07116002
0.06117828 -0.05899369 -0.010498475 0.02368018 0.016312107 -0.028362753 -0.07550624 -0.07160136
-0.035291266 -0.034978975 0.05966888 0.025456935 -0.010066954 -0.05371374 0.00088688557 0.12298604
-0.19679369 -0.123172514 -0.11972833 -0.12118313 -0.057193696 -0.20805326 -0.19827664 0.091656044
0.028471213 -0.04089615 0.069684826 0.10075669 0.027913533 0.022625154 0.08341759 -0.014272015
0.07087481 0.027839603 0.020383049 -0.0081473235 0.017560257 0.07770258 0.08276365 -0.021072976
-0.05747799 0.007538329 -0.0035276716 0.025262384 0.09285725 -0.017661512 -0.07220505 -0.019632302
0.057001602 0.01996895 -0.09151722 -0.15478945 -0.08579047 -0.09545948 -0.03213078 -0.14109413
-0.0575994 -0.017455926 0.058938656 0.018559976 -0.038417418 -0.074161135 0.037685473 0.09069346
0.02689731 -0.029550118 0.0014159653 0.0031161539 -0.036469955 -0.02610817 -0.0013062499 0.012294637
-0.003276044 -0.061128605 0.082644746 0.08748958 0.023890348 0.0692224 -0.06267212 0.035327137
0.029836325 0.05837157 0.07968351 0.013890688 -0.020327503 -0.021109384 -0.06341064 -0.07623401
-0.039759107 -0.08441875 -0.10047767 -0.059020005 -0.002809772 0.09902326 -0.0041478733 0.081939384
0.05417565 -0.01885522 0.16958037 -0.037632268 -0.06426631 0.027640542 0.034856617 -0.0042050495
-0.035523154 -0.02882147 -0.025370544 0.015885752 -0.0910946 0.03936021 -0.090839885 0.05984058
-0.044987164 0.0434788 -0.050986607 0.015394561 -0.006980936 0.02188348 -0.0015160685 -0.107752435
-0.068653114 -0.017197985 -0.01971319 -0.1085621 -0.033955943 0.0027432605 0.043300692 -0.06742556
0.017739085 -0.07269046 -0.091210686 0.027133042 0.048854508 0.024182435 0.04767112 0.06749734
-0.016439116 -0.03474826 -0.022460012 -0.07402335 -0.009992845 -0.017346272 0.055259258 0.049160328
0.07320675 0.15460221 0.13843489 0.018362628 0.070477955 0.14193924 0.020079248 0.12194649
0.03631984 -0.038401555 0.027991649 -0.09201148 -0.014287294 0.07651571 -0.046955056 -0.04972437
0.08389708 -0.0045198128 0.055051982 0.02834026 0.028270263 0.09832164 0.119194135 -0.020948492
-0.021735817 0.027757613 0.03592513 0.044248722 0.021419326 0.046351913 -0.0063983495 -0.08374454
-0.04645045 0.033260692 0.043563038 -0.051337406 0.073769525 0.10446913 0.0047977227 -0.039614283

lstm.weight_hh_l0 f4 [512, 128]
00000000: 6efc b43b 1016 8ebc e4da 653d d4f8 21bd
00000010: 9f02 f1bd 4699 62bd cdc1 35bd e49b 873c
00000020: 89d5 6fbd 5830 9dba 6e19 fe3c 4fdd de3d
00000030: 874b 02bd 11fe 273d e3e0 133d 957d 473e
00000040: 12f4 323c 4ea2 eabd a919 adbd d722 a1bd
00000050: 3491 e73d a84d 83bd 197c e1bc 59d0 ff3d
00000060: e6d1 82bd 0887 ed3d 2307 683d 94a7 bd3d
00000070: 67d7 87bd 27f1 363d ad8c 803d 755b 8fbd
00000080: 87b4 efbc 1783 343d bfb0 e7bd 1b9e 1dbd
00000090: 7db5 de3c 08a1 b2bc ef7c 403c 7555 ad3c
000000a0: 4d38 bbbc 2f85 26bd 3121 ce3c e471 02bd
000000b0: ccc9 bc3c 7a95 873d f55b 603d 0452 14be
000000c0: cae8 e4bc a097 c5bc 2228 a6bd af06 05bc
000000d0: b5ae 89bc f2eb 513c fa6c 9c3c 0063 bfbd
000000e0: 22b6 5cbd fbdb 41bc 077c 93bd b9d5 66bd
000000f0: dee2 c1bb afb1 b3bd 5e58 fb3d dddc bdbc
00000100: 4d87 3bbe a51b f4bc dbeb 8bbc 3d43 243d
00000110: 1761 c53b 4ba3 6bbd b90f b73a 058e 4ebc
00000120: 310c 18be 014f a13d 4585 d4bb c033 603b
00000130: 669a 9cbd 10a0 cdbc 400f 6a3d b360 553d
00000140: c4d2 ac3d 6a73 083c 0248 b93d 29ad 033d
00000150: 7f7c 80bd d23d 1fbc 45a2 e53d 6394 fe3d
00000160: cd75 353c 3942 bbbd 0099 9dbd 4384 bebd
00000170: fa39 65bd c805 5fbb 917f b8bc 7188 8bbd
00000180: c70f 0dbd 8b6b b43b d891 103e aab2 76bd
00000190: 5f56 49be 1c1e 2b3c 1b93 28be 632d 27bc
000001a0: a400 343e a50a bc3d 25f2 903d d452 fa3d
000001b0: a27f af3c dbcd e83b 19bf 773d 9f06 86bd
000001c0: b98e 4e3d 40a6 cb3d b3c0 133a 5885 823d
000001d0: 4707 78bd e9ba 05be 7892 30bd c58b 45be
000001e0: 7a0e 3ebb 0fd2 be3d bbd7 67bc 1f0e f53b
000001f0: 175b c73d a3de 91bd 9a8d 9dbd 5b2b 9abb
00000200: 6f04 9e3b 49da 973c 878b ab3d f18a dbbd
00000210: 1746 893c 5c34 b13d 4c66 8c3d c83e a03d
00000220: 310d 4f3d 0a89 42bd 2792 893d e2b9 7cbd
00000230: 5213 e4bc 7ff2 983d 798b 443d 2e03 2e3d
00000240: 872f 2ebd 2fb7 c33c dbf3 5f3d b48c 4fbe
00000250: be22 333c a86c b4bd 8f4a cabd a119 8b3d
00000260: 8429 043d a50e 293d 0e49 2ebe 57a4 853e
00000270: 7a55 01be 4f46 9cbc 77cb 9bbd 5fbb 21be
00000280: 71d7 d23d 7893 903d d52a 41bd ba83 a5bd
00000290: 1e54 5d3d 76b2 11bd ec5e d83d 77b4 f93d
000002a0: de38 c3bb d4ba a63d 4313 f83d 2d38 30be
000002b0: bc39 adbc 01e2 56bd 3a8c 5c3b abf2 cabd
000002c0: 964b b23b 073f 0b3e 9f08 a0bc 1bdd f73b
000002d0: 79c5 8c3d a888 11bd 59d0 8b3d a148 73bd
000002e0: 4bcc 4a3d 84f9 073d cc72 43ba 3032 dd3d
000002f0: e287 5c3d fdec 343a cec8 bb3d e058 2cbe
00000300: bd7a a2bd 4633 10be 5ee7 0a3e 1dbe 533c
00000310: 7f57 453e f32d 74bd 9dc7 f6bd 8502 513d
00000320: 141c d73d 831d 573d 5e03 043d 332d a83d
00000330: 2683 5b3d 3f35 24bc d956 88bd a5f5 62bc
00000340: c49c 633d 7d59 febd 8bc6 fa3b 28bf 653d
00000350: f210 533e e4b8 d63c bc8d 8d3d 4724 013c
00000360: ede4 bc3c 9fae 80bd 7795 aebc f9fa 24be
00000370: 8566 493c 4976 ac3d 46b7 793d 41f4 b63c
00000380: 4f2e f7bd a891 3c3d 12f2 15bd ca1c b3bd
00000390: 1bf6 2e3d 2549 3d3d cda6 7cbe dbb8 20be
000003a0: 897a 103e f9d5 66bc a217 4cbc fe15 27be
000003b0: 0836 e23d 1adb 223d 12fb 493e 42b5 dbbd
000003c0: 4a56 b63c 597a 84bb 6720 023d 74d2 f7bc
000003d0: 42f7 b6bc f68b e33a 50b6 5e3d e991 c13d
000003e0: 903e 2a3e 9ef4 e9bd 7afb 513c 4c4f e8bd
000003f0: 3af9 e7bc 2b9e fe3d ba3a ce3c 0f34 1cbe
0.005523256 -0.017344505 0.056116953 -0.03954394 -0.11768078 -0.055321954 -0.044374276 0.016553827
-0.058553252 -0.0011992557 0.031017985 0.10882055 -0.03181031 0.04101378 0.03610314 0.194815
0.010922449 -0.114567384 -0.0845216 -0.07867973 0.11306992 -0.06411296 -0.027524995 0.12490911
-0.06387691 0.11598021 0.05664743 0.092604786 -0.066328816 0.044663575 0.06276832 -0.06999866
-0.029260887 0.04407033 -0.113130085 -0.03848086 0.02718615 -0.021805301 0.0117485365 0.021158913
-0.022853995 -0.040654358 0.025162311 -0.031846896 0.023045443 0.06620307 0.054775197 -0.14484411
-0.027943034 -0.024120152 -0.081131235 -0.008119269 -0.01680694 0.012812601 0.019094933 -0.093450546
-0.053884633 -0.011832233 -0.07201391 -0.056356166 -0.0059169373 -0.08774125 0.12272714 -0.023176605
-0.18313332 -0.029798338 -0.017080238 0.040103186 0.006023537 -0.057528775 0.0013966478 -0.012607102
-0.148484 0.07876397 -0.0064856135 0.0034210533 -0.07646637 -0.025100738 0.05714345 0.052094173
0.08438638 0.008328298 0.090469375 0.03214756 -0.06273746 -0.009719329 0.11212591 0.12430646
0.011075449 -0.0914349 -0.07695198 -0.09302571 -0.055963494 -0.0034030546 -0.022521766 -0.068131335
-0.034438875 0.005505984 0.14118135 -0.06022898 -0.19661854 0.01044419 -0.16462366 -0.010203692
0.1757837 0.09181718 0.070774354 0.122228295 0.021423165 0.007104618 0.06048498 -0.065442316
0.05042908 0.09943819 0.00056363194 0.063730896 -0.060553815 -0.13059582 -0.043108433 -0.19291599
-0.0029000328 0.09317409 -0.014150555 0.00747849 0.09734171 -0.07122543 -0.07693024 -0.0047048754
0.004822306 0.018536704 0.08376222 -0.1071986 0.016757054 0.08652565 0.06855449 0.078244746
0.05054969 -0.047493972 0.067173295 -0.06170071 -0.027841244 0.074681275 0.047984574 0.0424835
-0.042525794 0.02389106 0.054675918 -0.20268518 0.010933576 -0.08809787 -0.09877502 0.06791998
0.032266155 0.04127373 -0.17020056 0.26101944 -0.12630263 -0.019076495 -0.07607167 -0.15794133
0.102949984 0.070593774 -0.04715999 -0.080817655 0.0540353 -0.035570584 0.1056498 0.12192624
-0.005957707 0.081411034 0.12113049 -0.1720893 -0.021145694 -0.052461628 0.0033652917 -0.099095665
0.0054411395 0.13598262 -0.01953536 0.0075641996 0.068736024 -0.035530716 0.068268485 -0.059395436
0.049511235 0.03319694 -0.0007455766 0.10800588 0.053840525 0.0006901769 0.0916916 -0.16830778
-0.07933567 -0.1408206 0.13564822 0.0129237445 0.19271658 -0.059614133 -0.12049792 0.051027793
0.10503402 0.05251838 0.032229774 0.08211746 0.05359187 -0.0100224605 -0.0665719 -0.0138525115
0.055569425 -0.12419412 0.0076530627 0.056090504 0.20611933 0.02621121 0.06911799 0.007882184
0.02305838 -0.06283306 -0.021311505 -0.16111363 0.012292509 0.084209986 0.0609658 0.022333266
-0.120693795 0.046037346 -0.03660781 -0.087457255 0.042715173 0.046212334 -0.24673004 -0.15695517
0.14109243 -0.014089101 -0.012456806 -0.16316983 0.11045462 0.039759733 0.19724682 -0.107279316
0.022257943 -0.0040429053 0.031769183 -0.030251719 -0.022334699 0.0017360437 0.054373085 0.09451658
0.16625428 -0.1142361 0.012816304 -0.1134325 -0.028317083 0.12432512 0.025174487 -0.15254234

lstm.bias_ih_l0 f4 [512]
00000000: 9ba1 91bd 4c1a c6bd 4fd2 1bbe e5a1 c6bd
00000010: 3a5f a8bc e203 d7bd de8b 6dbe 475c 10be
00000020: 5eb6 debd 0c32 86bd a2a0 a6bc f789 5dbd
00000030: c584 0abe cc35 63bd cb6f 15be ca7a 95bd
00000040: 5791 48be 0e7e 17be 69a9 cebd fc4a 563d
00000050: 4d4e 94bc 02f2 adbe d2b3 29be 47b4 4dbe
00000060: 5252 30be a54b 85bb e0db b3bd 1a2f 88bd
00000070: 5d9b 0abe 4526 fcbd b929 61be a16a 2ebe
00000080: 7298 46be 1d50 71be 2663 1ebe 6f59 1ebe
00000090: f7a5 5cbe 2117 b0be 8735 f2bd 0c5c c5bd
000000a0: 416a 9dbd 2700 f3bc 4188 cfbc c68e 223d
000000b0: a710 0bbe 5b15 34be 97d5 81bd a7f4 d2bd
000000c0: 639a 983b 3121 85be 651b 21be b4b2 38be
000000d0: 58fb 78be d2e7 febd 614e 50be d237 46be
000000e0: 21b0 29be 4afe 2abe a64f 0abe 0e74 a1bd
000000f0: 3d71 68bc 2199 b8be f4db 0abe fa27 b5bd
00000100: a148 fcbd 5427 2dbd 3640 17be e006 44be
00000110: 2fb6 93bc 48ff ebbd 71da 5fbe 604d a9bd
00000120: e138 1bbe 645f 3ebe ed3a ffbd 0e84 f5bd
00000130: 9ee3 19be 4858 e0bd 0d17 36be fa3e 12bd
00000140: cef2 76be 6754 cdbd 0049 5abd db64 14be
00000150: 6e99 53be 3b4c 1cbe 4259 3cbd c5bb 36be
00000160: d8dd 14be 91ef 373d a4e1 47be aa97 d3bd
00000170: 6cff 7dbe 52a0 57be 7ec8 37be df13 6fbe
00000180: f0a2 1bbe 2910 73be 36f9 22be 0f31 0ebe
00000190: 30a9 00be 9cf4 dabd 3e3d 7bbc 3117 acbd
000001a0: d5bb f0bd 47ea 21be ef8a 30be 0bef d5bd
000001b0: 6b37 12be 9225 07be 0da7 1ebe df92 9fbe
000001c0: 952c 26be d4a3 01be 8fb0 79be f851 03be
000001d0: 0891 d2bd 3273 9ebd ac4d a2be db4d c8bd
000001e0: c021 88bd 9f00 79be 2d3f 6cbe cba5 36be
000001f0: 9fee afbe f577 f1bd 052c 76be 77a4 a2bd
00000200: 6f82 25bc 090f 4dbe d01e a8be ca7f 52be
00000210: a032 fdbd 071c b73d 2a95 2fbe 1e1f 18be
00000220: 07b1 68be 22a7 58be da1d 13be 01e0 3dbe
00000230: 77db 3cbd 2668 1ebe 1299 503c 64a6 6bbe
00000240: 7d0c 97be 9afd f2bd 1781 bb3b facc 7abd
00000250: 80f4 353d 5130 febd 1f9b 99be e099 4abe
00000260: 68f0 17be 3601 d43d 3e2e 78bd 04d7 e7bd
00000270: c223 5ebe 81b0 f6bd f903 20be f8fd eabd
00000280: 080e 0cbe ceea 27be ad9d e6bc 8c7d 4bbd
00000290: 3cfd f1bd a300 3ebe d8f1 d5bd c1d3 6bbe
000002a0: 164f 3fbe 5a15 e2bd b788 d5bd 9d03 833d
000002b0: 3ec7 93be 9394 a0be 2f2d dfbd c396 52be
000002c0: 1264 e5bd 4a8d fbbd 2cc3 02be 432c d3bd
000002d0: 0cef 76be 252d 0fbd f5c0 3fbe b8b2 43be
000002e0: c5ae 20be 45ad 23be 8816 6e3d 67e6 b0be
000002f0: b7b8 4bbe 40db 6cbe 9786 60be f9da b73d
00000300: e834 8fbe 5e03 2fbe 2883 a03d d0eb 01be
00000310: df5e edbd 687a 32be a88c 64be b99d 36be
00000320: 19ba 17be ae8a 81be f9d2 82bd 5360 aebe
00000330: 5090 16bc 067a 09be ed3c fbbd 0b20 04be
00000340: a4e4 87be d0ea 5cbe 3fb4 67be 5aa8 efbd
00000350: dcb3 1fbe 21fc 24bd 9ee0 5abe 3049 8ebd
00000360: 4428 93be f424 42bd fc7d 16be ab5e 9fbe
00000370: a632 15be a11c 8ebe 7c43 bcbe c563 53be
00000380: d487 63be 9851 97be d525 80bd e47b 9bbd
00000390: d385 0ebe 5e8c 5cbe d4d8 17b9 9edb 74bd
000003a0: a897 f9bd db2b 35be e764 58bd 0486 8abd
000003b0: 3b3e f5bd 54cb ebbd eb63 b0be c272 05be
000003c0: 2dcf a4bd e586 23be aa90 47be 22dd 76be
000003d0: 8fee 88bc 36ff 09be 7ac7 8abe 7c07 87be
000003e0: 19aa 55be f35c a2be 4967 3dbe 009a ccbd
000003f0: 84b8 53be cd0f 8bbe aa3d cebe 7824 6dbd
-0.07110902 -0.096729845 -0.15216945 -0.09698848 -0.02055322 -0.104987875 -0.23197886 -0.14097701
-0.108746275 -0.065525144 -0.020340268 -0.05408665 -0.1352721 -0.055471227 -0.14593427 -0.07298811
-0.19586693 -0.1479418 -0.10090906 0.052317604 -0.018103743 -0.339737 -0.16572502 -0.20088302
-0.17218903 -0.0040678554 -0.08782172 -0.06649609 -0.13535829 -0.12311987 -0.21988572 -0.17032863
-0.19394091 -0.23565717 -0.1546751 -0.15463804 -0.21547686 -0.34392646 -0.11826616 -0.09636697
-0.07686282 -0.029663159 -0.025333526 0.03968694 -0.13580571 -0.17586271 -0.06339567 -0.1030057
0.004657076 -0.26001886 -0.15733106 -0.1803692 -0.2431463 -0.1244656 -0.20342399 -0.19357231
-0.16571094 -0.16698566 -0.13506946 -0.07883464 -0.014187154 -0.36054328 -0.13560468 -0.088455155
-0.1231854 -0.042273834 -0.14770588 -0.19143248 -0.018031208 -0.115233004 -0.21860673 -0.08266711
-0.15158416 -0.18591076 -0.12462411 -0.11988078 -0.15028235 -0.10954338 -0.1778223 -0.03570459
-0.2411606 -0.10025864 -0.053292274 -0.14491598 -0.20663998 -0.15263455 -0.04598356 -0.17845066
-0.14537752 0.044906203 -0.19519669 -0.10331662 -0.24804467 -0.21057251 -0.17947575 -0.23347424
-0.15198874 -0.23736633 -0.15915379 -0.13885902 -0.1256454 -0.10691187 -0.0153344255 -0.08402861
-0.11754576 -0.15812026 -0.17240499 -0.104459845 -0.14278953 -0.13197926 -0.15493412 -0.3116674
-0.16227944 -0.12660152 -0.24383758 -0.12824237 -0.10281569 -0.077368155 -0.31699884 -0.09780475
-0.06647062 -0.24316643 -0.23070975 -0.17836682 -0.3436174 -0.11790458 -0.2404023 -0.079415254
-0.010101899 -0.20025267 -0.32836008 -0.2055656 -0.123631716 0.08940893 -0.17146745 -0.1485562
-0.2272378 -0.21157506 -0.14366856 -0.18542482 -0.046107735 -0.15469417 0.012731807 -0.23012692
-0.29501715 -0.11864777 0.005722176 -0.061230637 0.044422626 -0.124115594 -0.3000116 -0.19785261
-0.14837801 0.103517935 -0.060590975 -0.11320308 -0.21693328 -0.12045384 -0.15626515 -0.11474222
-0.13677227 -0.16398165 -0.028151358 -0.049680278 -0.11815879 -0.1855493 -0.10446519 -0.23029996
-0.18682513 -0.11039229 -0.10426467 0.063971736 -0.28862947 -0.31363353 -0.1089729 -0.20565324
-0.112007275 -0.12282808 -0.12769765 -0.10311177 -0.24114627 -0.034955163 -0.18725951 -0.19111145
-0.1569167 -0.15984066 0.058126956 -0.34550783 -0.19894682 -0.23130512 -0.21926342 0.089773126
-0.27970052 -0.17091128 0.07837516 -0.12687612 -0.11590361 -0.17429507 -0.22319281 -0.17833604
-0.14817084 -0.25301117 -0.06387896 -0.34057865 -0.00918968 -0.13425454 -0.1226748 -0.12902848
-0.26541626 -0.21573949 -0.22627352 -0.117020324 -0.15595955 -0.04027951 -0.21374747 -0.06947553
-0.28741658 -0.047398522 -0.14696497 -0.31126913 -0.14570102 -0.27756217 -0.36770236 -0.20643528
-0.22219783 -0.2955444 -0.06257216 -0.0759199 -0.13918237 -0.21537921 -0.00014481257 -0.059779756
-0.12187129 -0.17692511 -0.052830603 -0.06763843 -0.1197476 -0.11513391 -0.3445123 -0.13032058
-0.08047328 -0.15969427 -0.19488779 -0.24107793 -0.016715316 -0.13476261 -0.27105314 -0.26372898
-0.20865668 -0.3171154 -0.18496431 -0.09990311 -0.20675856 -0.27160493 -0.4028142 -0.057896107

lstm.bias_hh_l0 f4 [512]
00000000: fbae cfbd e91f 43bd abf5 65bd 2007 48be
00000010: 691e ecbd ecdc d7bd fdd5 78be f438 fabd
00000020: 6226 13be 8888 dfbd 4818 8f3c 5150 5cbd
00000030: a521 49be 2674 c5bd 0c06 95bd 763f 79bc
00000040: 11de 67be a874 e5bd 8d5c 60bc aabd abbd
00000050: fa9e 2abd b3a7 51be 8e0d 96be e769 41be
00000060: fb35 84be d46a 58bd 2da3 a33d a290 06be
00000070: 15cc 3abe a3a1 5ebe 66fb ffbd 5ceb 82be
00000080: 890f 28be 66cb 76be 5856 a0bc 1969 d1bd
00000090: a67c febd fb0c acbe 9185 d6bd ff81 e8bd
000000a0: cfc5 13be 835f ee3c e546 1d3c 05bd 59bc
000000b0: 135c 29be 5042 8fbe 1c38 d1bd 250e 40be
000000c0: 959d 723c 241f 8dbe 5ca2 1abe 3c9e 00be
000000d0: c55f 5fbe 091e 32be 565c 3abe 13cb 5bbe
000000e0: 6629 0cbe eccf 53be 0f91 ea3b 0e79 f2bd
000000f0: e867 b8bd 96ae 91be 6919 12be ac4a 15bb
00000100: 6671 eebd ba0c debd 6eba b0bd bbed 3cbe
00000110: b284 51bc 0e93 88be 80f9 49be 7fb8 58be
00000120: 17cc 47be f1e0 48be 4db9 22be a0cf fcbd
00000130: 9b1c 0bbe 36e3 6dbe 3d1e 0abe 04a9 65bd
00000140: 28f2 28be df06 aebd cfef 6ebd 0ebe 2fbe
00000150: edec b2bd 60ed 1dbd d73c 28bd 84b1 e9bc
00000160: c6a1 9dbe e858 143d a248 51be 1523 3cbe
00000170: 53a5 36be 2e1f 50be ca83 75bd ac32 5cbe
00000180: b176 f9bd 7e96 63be b145 47be cd5b d7bc
00000190: 88d2 3dbd 2aea 68be 76ee f4bd eb07 15be
000001a0: a0ad 8fbd c07f 0abe ae58 f8bd 435b 19be
000001b0: 6db9 58be 7afa ffbc 29a1 4bbd e6a8 9dbe
000001c0: a2bc e2bd e710 17be a87c e4bd b03c 49be
000001d0: 2c3b 8cbd 70e1 3f3b 7e2b afbe 1915 24be
000001e0: df64 0bbe 0fb9 4cbe 7d00 41be 5d12 95be
000001f0: b9eb 52be 37bb eabd 76cb 1ebe 6d3d 49be
00000200: e37b 02be d118 35be 5fcc 7abe 9261 24be
00000210: 1d6d 58be ebc8 d43d 8450 08be 5ff5 a7bd
00000220: 894b cfbd 2623 36be d74a 4cbe d230 08be
00000230: 334d 8d3c e831 c0bd 1246 06be ba98 01be
00000240: 7c01 4dbe e0be 33be e669 ad3d a0d6 b13c
00000250: 517d 7c3d c484 1dbe a54d 9abe 9ecf 42be
00000260: 7bdf cebd d8f6 243b 7ffa cdbd fcfb 6bbe
00000270: 4064 44be e804 7fbe 16dd 47be 3f2d 46be
00000280: ce35 ccbd 5a2c 38be 7cff 6abd d190 fd3d
00000290: 48ec 2cbe 7772 8dbe daca 16bd 2635 bfbd
000002a0: 8a55 f6bd 7d47 debd 5746 cabd b373 32bd
000002b0: 3ebd 81be 3e47 4ebe da25 3abe 356c efbd
000002c0: 9e33 00bd e6e4 f7bd b53b 8dbc e9c0 47bc
000002d0: 47c8 62be 5799 38bd 2b1f 0dbe a85c 3cbe
000002e0: 85e5 7ebe d310 6cbe 80d8 27bb 5568 9dbe
000002f0: bf7e 01be a22b 76be c8db 7cbe 2e29 023e
00000300: 3c61 0ebe 5328 f6bd dce2 29bd 2c97 c9bc
00000310: 09e9 01be 7d0a 7abe 4665 18be 1a57 20be
00000320: cf89 1ebe 949e 88be 599e 3cbe f010 b7be
00000330: 8237 b5bd 5935 7fbe 718e 58be e8e3 ccbd
00000340: 0add 62be 736f 71be a23e 35be efa0 1ebe
00000350: 94df 2dbe 66b1 2a3d 675d dfbd 693e 373d
00000360: 56fd 94be 2ce3 453d 2c12 36bd 3b5a 73be
00000370: b966 e3bd 9c5e 94be dd7c 90be 8e69 dbbd
00000380: c2f1 6dbe 8296 86be fa3c fbbc 5f92 33be
00000390: bd1f 13be 7772 ecbd 88c0 85bd c0b0 b9bc
000003a0: 4eeb ddbc bb74 3dbd efaa 30be d254 aabd
000003b0: 7a4e e8bd 6f96 d9bd 783e 52be 901b 46be
000003c0: 1a63 1ebe 83ec 5bbe 41d3 f3bd 1879 5abe
000003d0: 90e3 6fbd 68b0 2bbe e710 a9be 45e6 50be
000003e0: f26b 83be 9d75 93be 4f49 1fbe 7203 3abe
000003f0: a59b 99be d0e1 88be c13f b0be ac39 72bd
-0.10140797 -0.047637854 -0.05614249 -0.19533968 -0.11529238 -0.105401844 -0.2430038 -0.12217894
-0.1437011 -0.10914713 0.017467633 -0.053787533 -0.1964174 -0.09641294 -0.07276544 -0.015212884
-0.22643305 -0.11203891 -0.013693941 -0.08385785 -0.041655518 -0.20474128 -0.29307216 -0.18888055
-0.25822434 -0.052836254 0.07990108 -0.1314111 -0.18241914 -0.21741347 -0.12499122 -0.2557019
-0.16412176 -0.24101028 -0.019572422 -0.10225124 -0.124261186 -0.33603653 -0.104746945 -0.1135292
-0.14430927 0.029098278 0.009599422 -0.013289695 -0.1653903 -0.2798028 -0.1021578 -0.18755396
0.014808078 -0.2756282 -0.15100998 -0.12560362 -0.21813877 -0.1739427 -0.18199286 -0.21464185
-0.13687667 -0.20684785 0.0071584056 -0.118394956 -0.090041935 -0.2845351 -0.14267506 -0.0022780104
-0.11642723 -0.10842271 -0.08629309 -0.18450062 -0.012787985 -0.26674694 -0.19724083 -0.2116413
-0.19511448 -0.19617058 -0.15890999 -0.12344289 -0.13585131 -0.23231205 -0.13488097 -0.05606939
-0.16498625 -0.08497404 -0.058334168 -0.17162344 -0.08736596 -0.038556457 -0.041073646 -0.028527029
-0.30787486 0.0362176 -0.20437863 -0.18372758 -0.17836504 -0.20324394 -0.059940137 -0.21503705
-0.12180842 -0.22225377 -0.19460179 -0.026288891 -0.046343356 -0.22745577 -0.11959545 -0.14553802
-0.07015538 -0.13525295 -0.12126289 -0.1497622 -0.21164484 -0.031247366 -0.04971424 -0.30792922
-0.11071135 -0.14752541 -0.11156589 -0.19652057 -0.06847224 0.0029278658 -0.3421287 -0.16023673
-0.13612698 -0.19992469 -0.18847843 -0.29115573 -0.20597734 -0.1146149 -0.15507302 -0.19652338
-0.12742572 -0.17685248 -0.24492024 -0.16052845 -0.21135373 0.103898846 -0.13311964 -0.08201098
-0.10121829 -0.17786846 -0.19950424 -0.13299873 0.017248726 -0.09384519 -0.13112667 -0.12655917
-0.20020097 -0.17553282 0.08467464 0.021708786 0.06164295 -0.15382677 -0.30137363 -0.19024512
-0.10101219 0.0025171544 -0.10057544 -0.23045343 -0.19178867 -0.24904215 -0.19517931 -0.19353198
-0.099712 -0.17985669 -0.057372555 0.12381137 -0.16887009 -0.27626392 -0.036814548 -0.09336309
-0.12028034 -0.10853479 -0.098766975 -0.04356737 -0.25339693 -0.20144364 -0.18178502 -0.11690561
-0.031299226 -0.12104206 -0.017240385 -0.012191989 -0.22146712 -0.04506811 -0.13781421 -0.1839472
-0.24892242 -0.23053293 -0.0025611222 -0.30743662 -0.12646006 -0.24040082 -0.24693215 0.12711021
-0.1390428 -0.1201941 -0.041476116 -0.024608217 -0.12686552 -0.24418063 -0.14882383 -0.15658227
-0.15482257 -0.26683486 -0.1841978 -0.3575511 -0.08848478 -0.24922694 -0.21148087 -0.10004407
-0.22154632 -0.23577671 -0.17699674 -0.15491079 -0.1697982 0.041673087 -0.10906487 0.044737253
-0.2909953 0.04831235 -0.044450924 -0.23764889 -0.11103577 -0.2897843 -0.28220263 -0.10713492
-0.23236755 -0.26286703 -0.030668724 -0.17536305 -0.14367576 -0.1154527 -0.06530863 -0.022667289
-0.027089741 -0.0462539 -0.17252706 -0.083169594 -0.11343093 -0.10624396 -0.20531642 -0.19346452
-0.15467492 -0.21476941 -0.11905528 -0.21335256 -0.05856663 -0.16766512 -0.33020708 -0.20400341
-0.25668293 -0.2880067 -0.15555309 -0.18165377 -0.3000156 -0.2673478 -0.3442364 -0.05913703

lstm.weight_ih_l1 f4 [512, 128]
00000000: a0e6 6b3e 7ce7 21be ac26 a4bd 55b3 17be
00000010: 77be 433d 7961 6a3e a573 3bbe 362f ce3d
00000020: d62d 5c3d fe09 d8bb 1bca 46bd 4b95 8abd
00000030: 9db9 12be 82c4 22bd 14e7 0a3e c59a d6bd
00000040: 93a4 e53d bfa6 7dbd fb7c c13d d7c5 6ebe
00000050: 07c3 983c 608e a0bb 1953 b1bc 8a4e 9e39
00000060: 4916 a93c b69f 763c 6d4d 613d 4615 34bd
00000070: 089a 01bd 71bd dcbd 7a33 1e3e d7e8 edbc
00000080: ff18 093c 5038 303d 33f7 48be 7ebe 97bb
00000090: 32aa 203e 9746 25bd 69a9 43be 104f 3dbc
000000a0: 78eb a33d 9576 52be 7753 adbd c112 48bd
000000b0: 718c 89bd 1159 94bd b926 e83c 4617 17bd
000000c0: e159 183d bdd3 a83d f8f5 d8bd 5499 13be
000000d0: f819 013e 929a 2c3d 8a9f 0cbd b3ef 43bd
000000e0: c9f7 8cbc f9be ad3d 98a8 4ebc 1188 03be
000000f0: dff5 7d3d bd07 eabc e2fe 963c 5c8d 343d
00000100: 516f c13d a5ea bbbc 5141 5e3c e562 8c3c
00000110: ed14 b03d 0ca0 d83d 25cc e23d c089 f93d
00000120: 80e1 463d 43e9 d33c ffec 6c3d 62b2 503c
00000130: 4927 b5bd f8ed 15be c39f 543d d712 903c
00000140: f047 9d3a f842 ee3c 1a02 9fbd 22cb bd3d
00000150: 7596 c9bc 4879 e9bd 2c99 c03d 3d0a 113d
00000160: d635 7e3b 4677 4ebd c280 ba3d d9ab 213e
00000170: 211b 5cbe 7e05 7abd eb4a c8bc f7f0 a4bd
00000180: 1a29 b0bc 36e2 febb 9ec6 fc3d 0c81 3a3b
00000190: 5e56 253e 73ae 0abe 0765 c03c 15e6 123e
000001a0: ceca 3c3c 3617 aa3b 090c 82bc fa24 6fbc
000001b0: 7993 72bd 8664 de3c 78ea bdbb 07b6 b13d
000001c0: ebb9 c1bd 0d7c e4bd f8c9 12bd 1c50 97bd
000001d0: 7541 73bd fd32 d8bb 4c6b 333d 2441 10bd
000001e0: 15ad f0bc 5f26 ad3d 4f89 5bbd 4c47 90bd
000001f0: d3e3 e03c 3ea7 5e3b 862b 22bd b4e7 15be
00000200: 6dd0 f83d b844 03be b153 53bd 70c7 3dbc
00000210: acb5 b0bd 676d 8ebd 9186 8fbb 73f0 16bb
00000220: 5d34 24be 6a07 13be a8dd ce3c d45c 983c
00000230: 7ac8 cebd a3fa debd 2426 923d e6f7 8fbd
00000240: d7be 12bd a0dd b7bd 9ca0 133e 4468 f5bd
00000250: 6b43 b23b 8ff6 84bd 9dc5 0cbd 31c4 8bbc
00000260: c6b8 503d 7163 133c 9824 5e3d 9255 d63c
00000270: 44e9 b7bd f456 d0bc 2e39 bebd 12be 653c
00000280: 9657 f2bd 42c4 433c 8c12 953c a427 e6bd
00000290: 2f85 9c3d 1c16 05bd 0d14 11bd efe4 ae3c
000002a0: a467 03be f1e2 1abe 5b52 563d efbc bbbd
000002b0: 8e99 8ebd 9bf0 fc3d d37e 4bbd cb5f 3a3d
000002c0: 85f7 073d c797 de3b 6439 f9bd f827 b8bd
000002d0: f7fc 81bb b8b3 37bc 2365 413c 4481 56bc
000002e0: 0790 dbbc c420 213d 43f1 403d 9581 b5bc
000002f0: 98fe ffbb f787 a6bd c8f0 7e3d a67a 38bc
00000300: 0213 cfba c489 1bbe 2d58 633c baf6 143e
00000310: 966f 1d3e 02c0 913d d1c6 dcbd 68b4 51bd
00000320: 0a50 09be 34b5 0abd d281 fbbc b08b c0bd
00000330: 0d4b 9b3c bcff 09be 44f3 21bc 851c f4bd
00000340: 8038 9e3d 4d7a f63d 2feb 5fbd 5bb3 8c3d
00000350: 5df9 e73d 7191 3ebd 6871 0a3e 0d9b b4bd
00000360: 8593 cbbc b6cb 8bbd 51d2 fa3c 6e9c 863c
00000370: 1dff 14bd 2918 e8bd 5c7b 87bd b53c 4e3d
00000380: d4f6 b4bd 688a a6bd de1f 153c e266 243e
00000390: c518 673e 18c1 14bd a6bb 55bd 6b54 ff3d
000003a0: a82a 3dbd 620d a13d 6906 d03d 3961 973d
000003b0: 1e2e 243e 5fab 9d3d 019b 173e 252d 0cbe
000003c0: 4c98 bfbd 6f91 9abd e8a4 033e 3e70 5bbd
000003d0: e1fb f33b 5250 6b3b 8c5e 873c 4c2c 063e
000003e0: ccaa bb3b f9aa 85bc 9c39 10bd fbf1 05be
000003f0: f151 7b3d 7bcb b43d 47a8 13bc 64cc 2dbe
0.23037195 -0.1581096 -0.080151886 -0.14814503 0.047789063 0.22888745 -0.18305834 0.100675985
0.05375465 -0.006592988 -0.048532587 -0.067667566 -0.14328618 -0.039738186 0.13564712 -0.10478739
0.11213031 -0.0619266 0.09447666 -0.23317657 0.018647684 -0.004899785 -0.02164607 0.00030194625
0.02064051 0.0150527265 0.05500548 -0.0439656 -0.031641036 -0.107783206 0.15449324 -0.02904169
0.008367776 0.043022454 -0.19625549 -0.0046308627 0.15689924 -0.040350523 -0.19107594 -0.0115544945
0.080038965 -0.20553048 -0.08463185 -0.04884601 -0.0671624 -0.072435506 0.028338777 -0.03688743
0.03719509 0.08243511 -0.1059379 -0.14413959 0.12607563 0.042139597 -0.034331836 -0.047836017
-0.017207997 0.08483691 -0.012613438 -0.12844874 0.06200206 -0.028568143 0.018432084 0.044080123
0.0944506 -0.022939036 0.013565377 0.017137 0.08597741 0.105774015 0.11074094 0.12184477
0.048554897 0.025868064 0.057843205 0.012737842 -0.08845384 -0.14641559 0.051910173 0.017587109
0.0011999588 0.029084668 -0.07764073 0.0926726 -0.024607876 -0.11400086 0.09404215 0.035410155
0.0038789413 -0.050406717 0.0910659 0.15788211 -0.21494724 -0.061040394 -0.024449786 -0.08053773
-0.021503974 -0.0077784313 0.12342571 0.0028458266 0.16146228 -0.1354311 0.023485674 0.14345582
0.011522962 0.0051907552 -0.01587488 -0.014596218 -0.059222672 0.027147543 -0.005795773 0.08677297
-0.09459289 -0.11156473 -0.035837144 -0.073883265 -0.059388597 -0.006597875 0.0438035 -0.035218373
-0.029379407 0.08454584 -0.053597745 -0.07044849 0.027452385 0.0033974196 -0.03959229 -0.14639169
0.12149129 -0.12819183 -0.051593486 -0.011583194 -0.08628401 -0.069544606 -0.0043800552 -0.0023031502
-0.160356 -0.14358297 0.025252178 0.018598951 -0.100968316 -0.10887649 0.07136181 -0.07029705
-0.03582653 -0.089778185 0.14416736 -0.11982778 0.0054401658 -0.0649234 -0.034368146 -0.017061325
0.050957464 0.008995877 0.054234117 0.02616385 -0.08980039 -0.025432087 -0.0928825 0.014022367
-0.11833112 0.011948647 0.01819732 -0.112380296 0.0764259 -0.03249179 -0.035419513 0.021349398
-0.12832505 -0.15125634 0.052324634 -0.091668956 -0.06962882 0.12350579 -0.049681496 0.04550151
0.033195037 0.0067929956 -0.121691495 -0.089919984 -0.0039669233 -0.011212282 0.011803898 -0.013092343
-0.026802076 0.03933789 0.047105085 -0.022156516 -0.0078123324 -0.08131402 0.062241346 -0.01125971
-0.0015798511 -0.15189272 0.013876003 0.14547244 0.15374598 0.07116701 -0.10780109 -0.05119744
-0.13409439 -0.033864215 -0.030701552 -0.09401643 0.018956685 -0.13476461 -0.009884659 -0.11919502
0.0772562 0.12035046 -0.054667648 0.06870147 0.11326859 -0.046525422 0.13519824 -0.08818636
-0.024850616 -0.06825964 0.030617865 0.016432013 -0.036376107 -0.11332733 -0.06615326 0.050350863
-0.08836141 -0.08131868 0.009101836 0.16054872 0.22568043 -0.03631696 -0.05218091 0.12467273
-0.04618326 0.07863881 0.10157473 0.073915906 0.16033217 0.07698702 0.14805223 -0.13689096
-0.0935522 -0.075472705 0.12855875 -0.05357384 0.007445798 0.003590603 0.016524576 0.13102835
0.0057271477 -0.016316878 -0.03521119 -0.1308059 0.061357442 0.08827873 -0.009012288 -0.169725

lstm.weight_hh_l1 f4 [512, 128]
00000000: 5194 84bd 5f5b c0b9 6582 36bd 3f79 31bd
00000010: f46a acbd 85e2 563d b6b5 843d c384 b7bd
00000020: 76a7 92bd 8aa8 20bb 53c1 493d 4258 013e
00000030: 2c94 c73d 003f bbbd 1be4 5d3d f54c cc3d
00000040: 84f3 ee3b 368e e73b 14d7 073c cd34 d73d
00000050: 859c 28bd 8c72 d7bd 252a 85bc 14f5 043e
00000060: 6fb0 b1bd b5fe 00bd dad6 06bd 9d90 743d
00000070: 1401 3c3c 3935 bfbd b6d7 bbbd 57be 8a3d
00000080: 4b14 3cbd e4a2 65bd 9c3b 8fbd f92e 323d
00000090: fafb f93d 92fd 543d 865c c13a 99fd 36bd
000000a0: 4582 7dbd 3cbf 1cbd 51cb cf3b aa2f 0bbe
000000b0: d8d2 d2b9 0ec6 1ebd e252 9bbd 8fe1 c3bc
000000c0: e523 c6bc b6db 67ba 8296 1f3d 1160 843c
000000d0: 0255 d3bd 25d5 803d 89e7 bd3b e751 08bd
000000e0: ea34 143c 726c 813d ee8a a7bd 82bc 033e
000000f0: eed6 abbc a9df aa3d 74d2 be3d 7685 043d
00000100: 34fe b1bd 105f 07be 6989 073d cad5 523d
00000110: e757 f1bd d55f 313d e01c d93d e9c9 8ebd
00000120: 219b 933b d190 db3c 1a69 dcbd fb52 03be
00000130: 44c8 36bd 84ed a13c fada 17bc 2af3 343d
00000140: ac03 b13d b002 093d 23c6 f3bd 3512 78bd
00000150: 61d1 10bd 8cef 543d 1ec7 073e ef82 0dbe
00000160: 909c 25bc 931c 9d3d 1501 333e 4c40 19be
00000170: 3fe9 83bd 045c 693d c865 713d f7a2 67bd
00000180: dd8a 533d dd30 de3c f94f 823d 5cdc d2bd
00000190: 7e1b dfba 492c 243d 9748 bcbc c55c 8cbd
000001a0: 59e5 263d 0b6f c33d 52ad 103c 3d01 743c
000001b0: 264f 823a 6795 6bbd b987 a63c 3cfd 203d
000001c0: 62e8 1e3e 88c0 a8bc 1f71 c83d 6255 203c
000001d0: 4909 ce3d d89e 633d b698 d3bd fcb1 47bd
000001e0: 614a 893d 519c 4e3e 1a73 4a3d 6ca0 543c
000001f0: 60ea dcbb 265f f4bd 7e67 c2bb 6087 883d
00000200: 9439 53bc 676a 743c 913d 363d 4061 98bd
00000210: 62fb f43c cec7 fa3c 51ce fc3c 5ef3 5ebd
00000220: 4bc4 97bd b7f3 033d cf69 4abd cb2a 8d3c
00000230: b745 e9bd d847 1b3d 7b07 91bd 1d19 4fbd
00000240: 70e5 c5bd 27e1 ce3c d02f 723d 0207 253d
00000250: 4629 ce3c a0dc 7bbc 7162 153d b3e4 f53c
00000260: f307 b93c bae7 b03c 7df0 0dbd 1a18 09bd
00000270: 0c31 79bc 0d04 963d 8fbd 8fbd 2861 1a3d
00000280: a9dc 063d cde4 dbbc 9e41 c6bd d520 5b3d
00000290: eb0e f63d 4b09 f4bb 1d64 09bc e1ad 33bd
000002a0: 2ba0 393d 70fd 89bd 65fa 773d 209c 44bd
000002b0: afe8 c5bd 2a02 edbc 7e30 02bd 5795 15bb
000002c0: 1829 483d d0e5 a0bd b4b1 94bd ce5d 80bd
000002d0: 3238 243d d3cf ea3d 8046 2abd 923f 07be
000002e0: 307d a0bd fe04 75bd dc47 8d3d cd75 983c
000002f0: e9fc 8b3c 3685 973d f19d b23d d03b a7bd
00000300: 0240 9f3d 9fb4 84bd 7838 5cbd 70f7 84bd
00000310: ba4d a4bd badc 15bb 43da 0abd 7fa0 83bc
00000320: ec36 1d3d b2fb 823d 8af6 15bd 29d9 1bbd
00000330: b7e5 c73d 4612 9fbd 56bb efbc 985d e13d
00000340: 6f6c 3d3d 553f 143e d6ba 07bd 5b9c 8dbd
00000350: f874 f3bb dae0 2d3d 70d6 40bd c610 fc3c
00000360: e37c a6bd 4b3b dabd 3ff7 d93d abe7 1dbe
00000370: 150d 13bc 8715 92bc 0ec8 0f3d c833 89bd
00000380: ebb0 b83d 5ef6 9cba 0d42 003b 441f aabc
00000390: 1c5a 643d 97bb ec3d 024d 603d 4af7 af3d
000003a0: 38f7 80bb 16c9 19bc 3ef9 9e3c 047c e6bd
000003b0: c771 423c 0cff 97bd 3734 c2bd 703b a03d
000003c0: 72cb 993d ec95 1bbe 3a69 09bc 4132 2e3a
000003d0: 5fca 363c e9eb 213d 7d4f 163d ada9 07bd
000003e0: 865a 0dbb 2647 953d 0fdd 783d c1f1 b7bc
000003f0: b7db 203d 2e82 093d 5e74 15bd 42dd 6abd
-0.064736016 -0.0003668917 -0.044557948 -0.04332852 -0.08418837 0.05246212 0.06479971 -0.08960869
-0.07160847 -0.002451452 0.049256634 0.12631324 0.097450584 -0.09142876 0.054172616 0.09975616
0.007292213 0.0070665134 0.008291025 0.10508118 -0.041164894 -0.10519895 -0.016255448 0.12984115
-0.0867623 -0.031492908 -0.032919742 0.059708226 0.011474866 -0.09336323 -0.09172003 0.06774586
-0.04591779 -0.056063548 -0.069937915 0.043501828 0.12206264 0.051999636 0.0014752306 -0.044675443
-0.061891813 -0.038268313 0.006341376 -0.13592401 -0.00040211412 -0.0387631 -0.07584168 -0.023911266
-0.024187038 -0.000884469 0.038961895 0.01615909 -0.10318948 0.06290654 0.0057954234 -0.033281233
0.009045819 0.063195124 -0.081807956 0.12864879 -0.02097651 0.08343441 0.093174845 0.03235384
-0.086910635 -0.13219857 0.03309003 0.051473416 -0.11784344 0.043304283 0.106012106 -0.06972105
0.004504577 0.026802452 -0.10762234 -0.12824623 -0.044624582 0.019766577 -0.009268517 0.04417721
0.086432785 0.03344983 -0.11903026 -0.06056424 -0.03535593 0.051986262 0.13259551 -0.13819478
-0.010108128 0.07671466 0.17480882 -0.14965934 -0.064409725 0.05697252 0.058934957 -0.0565519
0.051646102 0.02712291 0.0636291 -0.102959365 -0.0017021743 0.040081296 -0.022983832 -0.06853632
0.040746067 0.09542664 0.008830385 0.014892873 0.0009941801 -0.057515528 0.02032839 0.039304003
0.15518335 -0.020599619 0.09787201 0.009785982 0.10060365 0.055571407 -0.10331862 -0.048753724
0.0670364 0.20176817 0.049426176 0.012977701 -0.006741807 -0.119322106 -0.0059327474 0.06666446
-0.012892146 0.014917946 0.044492308 -0.07440424 0.029905025 0.030612852 0.030860098 -0.05443131
-0.07410487 0.032214846 -0.049417313 0.01723232 -0.1139025 0.037910312 -0.07081505 -0.05056106
-0.09662902 0.025253845 0.05912763 0.040289886 0.025166165 -0.015372425 0.036470834 0.030016279
0.022586798 0.02159487 -0.034653176 -0.03347025 -0.015209448 0.073249914 -0.07018577 0.03769031
0.03292528 -0.0268425 -0.09680484 0.053498108 0.12014564 -0.007447397 -0.008385685 -0.043866996
0.045318764 -0.067377925 0.06054153 -0.048000455 -0.096635215 -0.028931696 -0.031784527 -0.002282461
0.048867315 -0.07856333 -0.07260457 -0.06267892 0.040092655 0.114654206 -0.04157114 -0.13207844
-0.078363776 -0.059819214 0.06898472 0.01861086 0.01708837 0.07398455 0.08721531 -0.08165705
0.077758804 -0.06479763 -0.05376479 -0.064925075 -0.08022638 -0.002286716 -0.033899557 -0.016067741
0.038382456 0.06395663 -0.03661207 -0.038048897 0.097606115 -0.07767157 -0.029264133 0.1100418
0.04624599 0.14477284 -0.033137165 -0.06914588 -0.0074297152 0.042450763 -0.047079504 0.030769717
-0.08129289 -0.106558405 0.106428616 -0.15420406 -0.008975287 -0.01783253 0.035102896 -0.066993296
0.090181194 -0.0011975279 0.001957062 -0.020766862 0.055749997 0.115592174 0.05476094 0.085920885
-0.003935721 -0.0093863215 0.019405957 -0.11254123 0.011867947 -0.07421693 -0.094826154 0.07823837
0.07509507 -0.1519391 -0.008386904 0.00066450617 0.0111566475 0.039531622 0.0366969 -0.0331208
-0.0021568849 0.07288961 0.060757693 -0.022454144 0.039272036 0.033571415 -0.03648793 -0.057339914

lstm.bias_ih_l1 f4 [512]
00000000: 560a aabd 5419 28bd 557b 96be a726 88be
00000010: 4ad0 14be 5eda a9bd 2856 1fbe 92d4 d9bd
00000020: 86f6 04be ad94 dcbd 2dce 2ebe 4795 c8bd
00000030: 4b3c 64be b475 f7bd 9c8e 11be a6ae fcbd
00000040: 9afe 12be cbdd c4bc cb8c 2abe aa99 35be
00000050: 3c07 f3bd a982 38be 7b71 f9bd aa15 5dbe
00000060: d845 36be a57a 1bbe c9fd 8dbd 902c 0abe
00000070: 9f16 4fbe f100 5cbe ff92 57be 135a 72be
00000080: 7892 20be a2b9 2fbe a5bd 14bd b94f 65be
00000090: f7a2 44bd 25d7 3cbe a53f 2bbe ce3e 133b
000000a0: 1b92 3abe 8f75 18be 901f bbbd 1a64 33be
000000b0: 6c63 8bbd 157c 71be dd16 a6bd a590 1dbe
000000c0: 19d5 21be 8fe1 04be b1e0 32be f69c 59be
000000d0: b638 2dbe 6ed0 4cbe dec8 ffbd 944c 89be
000000e0: bd40 3dbe 40f1 b4bd f784 3bbe 8f24 91be
000000f0: a15e 13be dd67 27be a1f2 a3be b4f6 2cbe
00000100: 01e8 aebd c4af 38be a9a0 41be 98fd 4cbd
00000110: 8563 173d e47d 1ebe bff9 b7bd 2d2f ffbd
00000120: 8f84 d7bd a835 b4bc a96f 3dbe 8b48 bbbd
00000130: e4f7 4cbd 09bd 3fbe e900 fabb c5fe 85bd
00000140: 3b69 84be d11a 73bd f13c 1bbe 09dd 4bbe
00000150: 9bc2 e9bd 7a67 42be 4f3c 03be 3518 95bd
00000160: d665 aebe a642 5dbe 24de e9bd 6e56 49bd
00000170: 5aab 1bbe 78dd 3abe f8b9 89bd d31b 44bd
00000180: 2f9d 43be 3f6e 3fbe 896a c4bd 8a87 b5bc
00000190: 9f1e 13be 0f55 53be f484 acbd 1c12 50be
000001a0: 2ed5 4ebe 1071 04bd a9ea 1dbe 7264 c2bd
000001b0: 5423 1cbe 0986 26be 5f40 7bbe b81e aabe
000001c0: 6e69 85be 6385 23be 1b94 a5be 9382 84be
000001d0: bf01 ebbd 137f 20be 514a 13be c09b 51be
000001e0: ae75 bebd b59f 09bd 7bd9 9fbd fb53 1cbe
000001f0: 535d fbbd 5d2e bebd 0258 e8bd 9214 79bd
00000200: c4b6 80bd 0ba5 793c 61f8 5abe 34a6 a5bd
00000210: ff46 bdbd 5c9c ec3c a39a f13d 53e0 983d
00000220: e2ae 8c3d c87e 013e 1409 8abd 9486 a9bd
00000230: f102 9dbd 7097 5c3d 1f26 41bb 6ca8 4bbd
00000240: 1e13 86bc faf5 b5bc d32e 11bc ab02 2abd
00000250: e47b d7bd 444a 40be f1fd 70bd ba00 04be
00000260: 04c0 eabd c749 eebd 6b73 8dbd 3bd1 98bd
00000270: 73cc e5bd 7902 93bd e57b cabd 1a6d c9bd
00000280: 3c90 07bd e8f3 07bd 2f94 723d 1efc 2cbc
00000290: ff84 e43d 9a46 25be 4053 0ebe 36ad ad3d
000002a0: b780 13be bf7b 82bc 8ae5 29be 26da 0bbe
000002b0: e759 c5bd 1170 39be e6df 04bd 8889 1dbe
000002c0: 7835 bf3b 5fdb dabc 85ba b0bd bc7e bebd
000002d0: f188 3c3d 8c48 b0bd 57c3 c23c 0d5f 80be
000002e0: f1fc 69be 4bbd f9bd 8834 633d 2dd3 9fbe
000002f0: 4d51 fdbb 6f15 acbd 4cfb 5fbe 49f7 d9bd
00000300: 193a 873d 92ab 56bd 0693 a1be ff0f 8abb
00000310: 3fea 8abd 5600 13be 959b 23be 7d28 c63d
00000320: 1590 1fbd 2bb5 09be d93d 38be 18ff acbc
00000330: 52d4 8bba f088 5dbd 20ac 9a3c feb1 efbd
00000340: 496a 0bbe 10b3 633e 2fde 0dbe 39d1 13bd
00000350: aede 95bd 7dd0 f6bd baa0 1ebd 192c aabd
00000360: 55b2 c7be 4d1d d1bd e6be 25bd 7907 f6bd
00000370: bcb1 d8bd 7adb 94bd b62b 93bd bdd9 c7bc
00000380: cb28 6d3c 6c2b 4b3d 1437 f6bc ccf8 0abd
00000390: dd93 1ebd 18d2 fcbd 2965 1ebe 69cb 23be
000003a0: 917c 34be 748a c53d b177 abbd d7a8 9ebd
000003b0: 078d babd 5600 f5bd 25d7 70be b257 83be
000003c0: ba3b 52be 5322 d43c 864e a2be aea8 d8bd
000003d0: 838e c5bd d2df a53d 8c67 933d f043 c4bd
000003e0: 3dca 8dbd c58d 1fbd bc3e 54be 075a 863c
000003f0: 77bd 18be c219 79bd ed71 23be da9a c3bc
-0.08302753 -0.04103978 -0.2939097 -0.2659199 -0.14532581 -0.08293603 -0.1556021 -0.10636248
-0.12984666 -0.10770545 -0.17070837 -0.097940974 -0.22288625 -0.12082997 -0.14214557 -0.12337999
-0.14354935 -0.02403154 -0.16655271 -0.177344 -0.11866614 -0.18018593 -0.12179848 -0.21590295
-0.17800081 -0.15183504 -0.06933171 -0.13493562 -0.20223473 -0.21484734 -0.21052168 -0.23667173
-0.15680873 -0.17160657 -0.03631367 -0.22393693 -0.048006978 -0.18441446 -0.16723497 0.0022467854
-0.18219797 -0.14888595 -0.091368794 -0.17518654 -0.068060726 -0.2358249 -0.081098296 -0.15387209
-0.15803947 -0.12976669 -0.17468525 -0.21251282 -0.16916165 -0.20001385 -0.12489484 -0.26816237
-0.18481727 -0.08835077 -0.18312441 -0.28348204 -0.14391567 -0.16348214 -0.3202105 -0.16890985
-0.08540345 -0.180358 -0.18908943 -0.050046533 0.036960144 -0.15477711 -0.08983182 -0.1246017
-0.105233304 -0.021998242 -0.18499626 -0.09144696 -0.050041094 -0.18724455 -0.007629503 -0.06542734
-0.25861534 -0.059351746 -0.15159966 -0.19908537 -0.11414071 -0.18984786 -0.12815975 -0.07280008
-0.3406207 -0.21607456 -0.11419323 -0.04915469 -0.15202084 -0.18248546 -0.06724924 -0.047878098
-0.1910293 -0.186944 -0.095906325 -0.022159357 -0.1436715 -0.20637916 -0.08423796 -0.20319408
-0.20198509 -0.032334387 -0.15421547 -0.09491815 -0.15247852 -0.16262068 -0.24536274 -0.33226562
-0.26057 -0.15968852 -0.32339558 -0.2588087 -0.114749424 -0.15673475 -0.14383818 -0.2046957
-0.09299789 -0.033599574 -0.07805153 -0.15266411 -0.122736596 -0.09286187 -0.11344911 -0.060810633
-0.0628486 0.015237103 -0.21383812 -0.08088341 -0.09242057 0.028883152 0.11797073 0.074646614
0.06869294 0.1264602 -0.06740013 -0.08277622 -0.07666577 0.05385536 -0.0029472185 -0.049721166
-0.016366538 -0.022212017 -0.008861261 -0.04150645 -0.10521677 -0.1877833 -0.058835927 -0.12890902
-0.11462405 -0.11635166 -0.0690678 -0.074617825 -0.11220636 -0.07178206 -0.09886912 -0.098352626
-0.033096537 -0.03319159 0.05922335 -0.010558156 0.111581795 -0.16140214 -0.13898945 0.08480303
-0.1440457 -0.015928147 -0.16591468 -0.13657436 -0.09636288 -0.18109156 -0.03244009 -0.15384495
0.0058352314 -0.026715932 -0.08629326 -0.093015164 0.046029035 -0.08607587 0.023774786 -0.25072518
-0.22850396 -0.12194308 0.05547002 -0.31215802 -0.007730639 -0.08402526 -0.21873206 -0.10642869
0.06602878 -0.052409716 -0.31557482 -0.0042133327 -0.0678296 -0.14355597 -0.15977319 0.09675691
-0.038955767 -0.13448016 -0.17992343 -0.021117732 -0.0010668135 -0.054085672 0.018880904 -0.11703871
-0.13614763 0.22236276 -0.13854288 -0.036088202 -0.073178634 -0.12051485 -0.0387275 -0.08309192
-0.39003244 -0.10210667 -0.040465258 -0.12013144 -0.10580775 -0.07268424 -0.071860716 -0.024395818
0.014475058 0.049601957 -0.03005556 -0.033928677 -0.038715232 -0.1234476 -0.15468277 -0.15995564
-0.17625643 0.096455485 -0.08372439 -0.077470474 -0.0910893 -0.11962955 -0.23519571 -0.25652844
-0.20530596 0.025895273 -0.31700534 -0.10579048 -0.096463226 0.08099331 0.071974844 -0.095832705
-0.069233395 -0.03895356 -0.20727056 0.01640035 -0.14916025 -0.06081558 -0.15961428 -0.02387755
